hw1/data/q2_dagger_ant_Ant-v4_27-02-2025_17-53-03/policy_itr_0.pt (torch, 28051 bytes, 7 tensors)

logstd f4 [8]
-1.7291514 -1.7295359 -1.7338561 -1.7268572 -1.7326988 -1.7254907 -1.728996 -1.7113038
00000000: d554 ddbf 6f61 ddbf ffee ddbf a809 ddbf
00000010: 13c9 ddbf e1dc dcbf be4f ddbf 010c dbbf

mean_net.0.weight f4 [64, 27]
0.11840419 -0.047886606 0.033121057 0.048185036 -0.11481532 0.06425052 -0.02375183 0.05710259
-0.013827334 0.030180097 0.011864326 0.061557796 0.12093099 -0.033830594 0.043860763 -0.10020197
-0.021320468 0.052680183 0.11430163 0.04916064 -0.08061792 -0.08838943 -0.028555304 -0.0422986
-0.04843867 0.04934375 0.046569657 0.044052 -0.23754078 0.17778115 0.059035894 0.123868495
0.12783249 -0.22780876 -0.18565829 -0.042408828 0.16551927 0.018775787 0.008020448 -0.1140279
0.12644753 -0.067904636 0.091903605 0.031191323 -0.07257867 0.0038240878 -0.12872177 0.034473803
-0.038576927 0.087172225 -0.16184214 0.02273567 0.058443014 -0.008964086 0.14404148 0.11820393
-0.026867362 -0.06854929 0.0693628 0.15293644 -0.14801282 0.16799425 0.15841313 0.08068629
-0.06730211 -0.10358957 -0.021168942 0.0016558367 -0.07017369 -0.050016146 0.029274825 -0.09397069
0.08125597 0.046629418 0.05425483 0.015818963 0.059240483 0.06758256 -0.1563621 0.0036911499
-0.07353855 -0.110692404 0.03468711 0.04017756 0.12118209 -0.08385557 -0.15798916 0.16512996
-0.021150732 0.07929703 0.07065665 -0.1716128 0.050734844 0.09772738 -0.10566846 -0.04891492
0.11861794 0.009447691 -0.10479402 -0.06128864 0.06101178 -0.034741316 0.039454512 0.11394966
-0.066545956 -0.13467489 0.2055242 -0.018383363 0.1201678 0.013588912 -0.012252671 0.12643722
0.15088165 -0.12912838 -0.01468743 0.16066232 0.1666846 0.14490221 -0.11289666 -0.1451782
-0.14213125 0.010460388 0.13392594 -0.106060386 0.05727729 -0.08734213 -0.13737947 -0.06657888
0.07614743 0.147343 -0.1279818 0.0326625 0.21900623 0.11041594 0.10178589 0.057963468
0.05261485 -0.06026831 -0.06768407 -0.24264315 -0.105205454 -0.10373701 -0.035273537 0.13894066
0.07579289 0.025445214 0.01710633 -0.03705121 0.05483052 0.06755482 -0.051048283 0.17812093
-0.017624218 -0.04116445 -0.009866562 -0.0059892335 -0.058392774 -0.10999436 0.024291325 -0.11089106
-0.024181195 -0.0035422333 0.12840489 0.18775317 -0.20295721 -0.0508218 -0.055218186 -0.08617474
-0.07586324 -0.15302052 -0.118806474 0.10621412 -0.023718204 0.08860437 0.2391024 0.20711872
0.084572256 0.02960093 -0.040992998 0.1152102 -0.014783924 0.043697603 -0.05537473 0.025706694
-0.1384991 0.039507035 -0.1563616 -0.049851805 -0.03341115 -0.103406094 0.047220085 -0.010145475
0.0017409347 0.013381568 0.08314259 -0.17690757 0.072334886 0.14467978 0.23683208 -0.1162889
0.014402481 -0.14176257 0.16377401 0.008932629 0.07748842 -0.0021871477 -0.006948609 -0.07609538
0.035357505 -0.029100662 -0.017124292 -0.005478231 -0.1100019 0.15817277 0.030445058 0.070347525
0.12786439 -0.16338749 -0.13758272 0.13501424 -0.17329513 0.14284405 -0.18559398 -0.12156022
0.11925949 -0.11278715 -0.017492624 0.11372101 0.13328847 0.16082002 -0.031849895 -0.15998325
0.14584525 -0.050076615 -0.09999489 0.021719057 -0.13006507 0.11270456 0.17492385 -0.105504915
-0.116633154 0.042206205 0.052267708 -0.02648477 -0.11290033 -0.040180452 -0.15170757 -0.19196971
-0.056888152 0.15267542 0.16696678 -0.04142773 -0.05774955 0.10812154 -0.01520577 -0.12794006
00000000: e57d f23d bf24 44bd f2a9 073d ac5d 453d
00000010: 4b24 ebbd c795 833d 3393 c2bc 68e4 693d
00000020: 0b8c 62bc 403c f73c 9762 423c 0724 7c3d
00000030: abaa f73d f391 0abd 58a7 333d b136 cdbd
00000040: 43a8 aebc 2dc7 573d f916 ea3d ab5c 493d
00000050: 021b a5bd 8405 b5bd d0ec e9bc 4c41 2dbd
00000060: a067 46bd ac1c 4a3d d3bf 3e3d df6f 343d
00000070: e43d 73be 430c 363e 9fcf 713d c4ae fd3d
00000080: 85e6 023e b346 69be 351d 3ebe e1b4 2dbd
00000090: e27d 293e aecf 993c 3268 033c 7687 e9bd
000000a0: 767b 013e 9611 8bbd f537 bc3d f284 ff3c
000000b0: 20a4 94bd 8c9d 7a3b a4cf 03be 6734 0d3d
000000c0: d702 1ebd 5a87 b23d f2b9 25be 2840 ba3c
000000d0: f161 6f3d 1ade 12bc 9c7f 133e e714 f23d
000000e0: f118 dcbc 9263 8cbd 150e 8e3d 5f9b 1c3e
000000f0: ac90 17be af06 2c3e 0d37 223e db3e a53d
00000100: b0d5 89bd c526 d4bd 7d6a adbc a908 d93a
00000110: 39b7 8fbd bbdd 4cbd c2d1 ef3c b573 c0bd
00000120: 8869 a63d 7dfe 3e3d 503a 5e3d c596 813c
00000130: 26a6 723d ba68 8a3d 631d 20be 38e7 713b
00000140: 619b 96bd b3b2 e2bd 1214 0e3d 3a91 243d
00000150: 512e f83d 78bc abbd e9c7 21be d417 293e
00000160: 4d44 adbc 7b66 a23d 6fb4 903d 44bb 2fbe
00000170: 57cf 4f3d 4b25 c83d b568 d8bd 035b 48bd
00000180: f6ed f23d 7dca 1a3c 3f9e d6bd cc09 7bbd
00000190: 7de7 793d e94c 0ebd 0e9b 213d 705e e93d
000001a0: 3f49 88bd 37e8 09be f074 523e b598 96bc
000001b0: 891a f63d 07a4 5e3c 6dbf 48bc c278 013e
000001c0: b880 1a3e 3b3a 04be 8ca3 70bc aa84 243e
000001d0: 5eaf 2a3e 3f61 143e 5d36 e7bd 98a9 14be
000001e0: db8a 11be 0c62 2b3c e223 093e 3036 d9bd
000001f0: 979b 6a3d 6ee0 b2bd 34ad 0cbe 825a 88bd
00000200: 2ff3 9b3d 15e1 163e a90d 03be 1dc9 053d
00000210: 2b43 603e c121 e23d 1f75 d03d 1a6b 6d3d
00000220: ab82 573d e7db 76bd f29d 8abd 7277 78be
00000230: f575 d7bd 1274 d4bd fc7a 10bd 7646 0e3e
00000240: 4d39 9b3d 7b72 d03c 9322 8c3c 02c3 17bd
00000250: f895 603d 2e5a 8a3d 0118 51bd 5565 363e
00000260: aa60 90bc 0e9c 28bd 5ca7 21bc 5541 c4bb
00000270: 432d 6fbd b944 e1bd 9afe c63c da1a e3bd
00000280: a417 c6bc d024 68bb 927c 033e 5e42 403e
00000290: 04d4 4fbe 852a 50bd 772c 62bd 627c b0bd
000002a0: 305e 9bbd 69b1 1cbe cf50 f3bd ca86 d93d
000002b0: ae4c c2bc 3576 b53d 42d7 743e ee16 543e
000002c0: 3834 ad3d a67d f23c 46e8 27bd 53f3 eb3d
000002d0: 4638 72bc 42fc 323d 9dd0 62bd d896 d23c
000002e0: b5d2 0dbe 21d2 213d 411d 20be 6831 4cbd
000002f0: 21da 08bd 93c6 d3bd d969 413d 3539 26bc
00000300: 1330 e43a 5d3e 5b3c aa46 aa3d 4227 35be
00000310: 5024 943d f026 143e 1c84 723e e028 eebd
00000320: 62f8 6b3c 352a 11be 60b4 273e 295a 123c
00000330: 40b2 9e3d 4056 0fbb 28b1 e3bb e5d7 9bbd
00000340: 08d3 103d 8364 eebc 3e48 8cbc bb82 b3bb
00000350: ad48 e1bd 0bf8 213e ea67 f93c 5d12 903d
00000360: e2ee 023e 0d4f 27be 7ce2 0cbe 2c41 0a3e
00000370: 4774 31be b645 123e 590c 3ebe 91f4 f8bd
00000380: 523e f43d f3fc e6bd b14c 8fbc 90e6 e83d
00000390: c67c 083e 01ae 243e 0975 02bd a6d2 23be
000003a0: 7558 153e 231d 4dbd 1fca ccbd 2aec b13c
000003b0: c72f 05be a6d1 e63d 3d1f 333e f612 d8bd
000003c0: 5ddd eebd 6ae0 2c3d aa16 563d 97f6 d8bc
000003d0: 4a38 e7bd 4294 24bd 3b59 1bbe b593 44be
000003e0: 8d03 69bd f256 1c3e 57f9 2a3e 20b0 29bd
000003f0: cb8a 6cbd d36e dd3d 9f21 79bc b802 03be

mean_net.0.bias f4 [64]
0.07689985 -0.2094126 -0.12017426 0.17058142 -0.097407945 -0.12636055 0.1462176 -0.06716016
0.004025761 -0.21316713 0.069212206 -0.20341104 0.025425747 -0.17568696 -0.19434997 0.16699399
-0.14919342 -0.027508928 -0.01469067 0.14028712 0.038457867 0.035617914 -0.11296133 -0.038491536
0.06972054 0.033659432 0.048483208 -0.20456322 -0.1754968 0.041699078 -0.1463392 0.11801713
0.14887066 -0.07835187 -0.09009861 0.1472993 -0.12708907 -0.16726984 -0.1570136 0.027850935
0.079693966 0.0893684 0.16147232 0.049193896 -0.050033472 0.18135941 -0.07917992 -0.058262575
0.12948987 -0.04603949 0.06819371 0.044461712 0.04009106 -0.051926803 -0.12468042 0.1392946
0.15617278 -0.15306471 -0.117964834 -0.025749873 0.092890605 0.0076794582 -0.03546465 0.16796577
00000000: ab7d 9d3d 4270 56be ec1d f6bd e5ac 2e3e
00000010: d17d c7bd a964 01be 11ba 153e 448b 89bd
00000020: 88ea 833b 7c48 5abe 21bf 8d3d fc4a 50be
00000030: a849 d03c 48e7 33be ae03 47be 7900 2b3e
00000040: 29c6 18be 675a e1bc 23b1 70bc 6da7 0f3e
00000050: ff85 1d3d 17e4 113d 4558 e7bd 4da9 1dbd
00000060: a4c9 8e3d 79de 093d 5496 463d 0579 51be
00000070: 6fb5 33be a7cc 2a3d f1d9 15be f7b2 f13d
00000080: 8d71 183e f276 a0bd 9f85 b8bd a1d5 163e
00000090: a323 02be c948 2bbe 2cc8 20be a527 e43c
000000a0: 9736 a33d c806 b73d 0059 253e 8a7f 493d
000000b0: e6ef 4cbd 48b6 393e 1529 a2bd bda4 6ebd
000000c0: fe98 043e e793 3cbd 25a9 8b3d 7c1d 363d
000000d0: 8636 243d 33b1 54bd 7358 ffbd 3ea3 0e3e
000000e0: c2eb 1f3e ffbc 1cbe 8c97 f1bd 66f1 d2bc
000000f0: 6e3d be3d f7a3 fb3b 6143 11bd 38ff 2b3e

mean_net.2.weight f4 [64, 64]
-0.07405046 0.123394795 -0.0035201192 0.037225086 0.06298238 0.013468597 0.10587752 -0.0069484357
0.10418128 0.058704183 -0.04203424 0.1049029 -0.088481165 0.09970082 -0.048223622 0.062545024
-0.045518495 -0.0076934663 0.004902155 0.02138142 0.08011322 -0.08810793 0.08838096 -0.10447093
-0.0009641569 0.057232805 0.035651594 0.03994094 -0.06642575 -0.013780126 -0.05163002 0.084426455
-0.00095061184 -0.00232681 -0.11028185 0.03845722 0.06952559 -0.07789683 0.037685096 0.0049893972
0.009857645 0.10002274 -0.060206108 0.017237937 0.038015362 0.022602616 -0.042710435 -0.06409927
0.042117037 -0.08961522 0.05850233 -0.061283298 -0.04150852 0.10719855 -0.06646299 -0.093205735
-0.0960523 0.07882206 0.07721197 -0.05495248 0.03329576 0.09185137 -0.046058927 -0.0060040825
0.026305268 0.004366025 0.06841722 -0.0002606533 0.03279472 0.03236212 -0.11018466 -0.08345419
0.028447596 0.0008447671 -0.0050663436 -0.06682329 0.14067751 -0.08322542 -0.04287206 -0.08949222
-0.078288846 -0.00892745 -0.07894518 0.07816291 0.11523909 0.04000077 0.09329718 -0.08047321
0.053293593 0.024921417 -0.04471009 -0.001734094 -0.07136789 0.0034737804 -0.06796333 -0.047754366
-0.057245016 -0.03352162 -0.008645845 -0.06951223 -0.0030665437 0.03777148 0.050639916 0.022038037
0.006109612 -0.040577043 -0.09893157 0.1365084 0.031020302 0.044207953 0.026878905 0.09457934
-0.0894887 0.03174798 -0.094449915 0.020227384 -0.044526625 0.038589977 -0.08892697 0.033885367
0.08466115 0.06814467 -0.09303957 0.059093226 -0.12233876 -0.09120904 0.0660347 0.025663702
-0.07906366 -0.1024687 0.042257473 -0.042303845 -0.08264721 -0.030506657 -0.10191517 0.08946042
-0.07239155 -0.02433857 -0.11725359 0.0025106836 -0.049819406 0.053606153 -0.001031459 0.04420041
0.07142138 0.025702287 -0.055174913 -0.12655929 -0.08407281 -0.022142228 -0.039469857 0.062756434
-0.060679473 -0.0010106878 -0.009721147 -0.07773835 0.062221717 -0.06873124 -0.08449259 -0.022613375
-0.092507996 0.007609654 -0.07398914 0.013393903 -0.044304788 0.07807789 0.07560363 0.07629445
0.0072778496 0.03519807 -0.068005 -0.049451955 0.039885573 0.018449295 0.05394908 0.08714734
0.07419223 0.026500087 -0.05148912 -0.03211229 0.015941398 0.1012102 -0.012846401 -0.011635744
0.05172586 0.07880739 0.005969171 -0.013053751 -0.086554736 0.01764544 0.020057011 -0.07814636
-0.06796544 -0.09537184 0.084140584 0.094384156 0.039988194 0.09660917 0.018005652 0.031906307
0.06041601 -0.035323832 -0.038906056 0.047536682 -0.025732161 0.05234773 -0.05934091 -0.09365302
0.0018010422 0.020367881 0.07795626 0.09472179 -0.043419436 0.067887366 -0.047214475 -0.00052060577
-0.06691441 0.029037397 0.109255515 -0.14543428 0.048272513 -0.111556575 -0.06249059 -0.031353615
-0.016424596 -0.06051866 0.03913176 -0.1298099 0.037828192 -0.033759404 -0.08077745 0.08060482
0.00078914134 -0.057083216 -0.072530866 -0.07524657 -0.038806126 0.021497939 0.008126394 0.11243128
0.00067901047 -0.056367446 0.08684592 0.019310549 -0.007351187 0.05986648 0.119729206 -0.06878731
-0.08001248 -0.07578341 -0.082959786 -0.030979142 0.041640393 -0.07744053 -0.12185567 -0.083626546
00000000: c4a7 97bd 69b6 fc3d cdb1 66bb 5579 183d
00000010: e8fc 803d 64ab 5c3c 50d6 d83d b4af e3bb
00000020: ff5c d53d cc73 703d 182c 2cbd 55d7 d63d
00000030: 9d35 b5bd f22f cc3d 2286 45bd 9b17 803d
00000040: 9a71 3abd 7919 fcbb 42a2 a03b 1628 af3c
00000050: 6612 a43d ee71 b4bd 1401 b53d dbf4 d5bd
00000060: 79bf 7cba f26c 6a3d 6807 123d 1c99 233d
00000070: 390a 88bd 0ac6 61bc 007a 53bd c7e7 ac3d
00000080: 7b32 79ba 657d 18bb 73db e1bd 5185 1d3d
00000090: 6f63 8e3d 6088 9fbd b05b 1a3d 197e a33b
000000a0: f681 213c b9d8 cc3d ae9a 76bd 9336 8d3c
000000b0: ffb5 1b3d 1f29 b93c 23f1 2ebd 7a46 83bd
000000c0: ea82 2c3d 2f88 b7bd 24a0 6f3d 3204 7bbd
000000d0: d604 2abd ea8a db3d c01d 88bd a6e2 bebd
000000e0: 11b7 c4bd 766d a13d 4f21 9e3d da15 61bd
000000f0: 2361 083d 921c bc3d 49a8 3cbd e5bd c4bb
00000100: 257e d73c df10 8f3b 541e 8c3d 4ba8 88b9
00000110: c253 063d 248e 043d 7fa8 e1bd 08ea aabd
00000120: ef0a e93c 5c73 5d3a 9203 a6bb a6da 88bd
00000130: c40d 103e 1772 aabd 9d9a 2fbd b247 b7bd
00000140: e755 a0bd 7044 12bc 03ae a1bd e013 a03d
00000150: 7902 ec3d d9d7 233d 9812 bf3d 23cf a4bd
00000160: 624a 5a3d 0028 cc3c ed21 37bd 8a4a e3ba
00000170: 5429 92bd 5da8 633b 5c30 8bbd 159a 43bd
00000180: c079 6abd f74d 09bd 4da7 0dbc 6e5c 8ebd
00000190: 11f8 48bb 44b6 1a3d cd6b 4f3d 1d89 b43c
000001a0: 2433 c83b 1d34 26bd a39c cabd dcc8 0b3e
000001b0: 4a1e fe3c 6613 353d 2631 dc3c d0b2 c13d
000001c0: da45 b7bd 2b0a 023d f56e c1bd e6b3 a53c
000001d0: 8d61 36bd 8610 1e3d 581f b6bd 62cb 0a3d
000001e0: d362 ad3d 6f8f 8b3d 888b bebd bd0b 723d
000001f0: be8c fabd cecb babd 333d 873d af3c d23c
00000200: 21ec a1bd 1cdb d1bd 2c16 2d3d cc46 2dbd
00000210: f142 a9bd 19e9 f9bc e7b8 d0bd 0637 b73d
00000220: 0542 94bd ae61 c7bc a622 f0bd 488a 243b
00000230: 6f0f 4cbd 2092 5b3d 0532 87ba 7d0b 353d
00000240: 5f45 923d 9a8d d23c 17ff 61bd c298 01be
00000250: 5e2e acbd 9e63 b5bc 25ab 21bd 7286 803d
00000260: 0a8b 78bd 0e79 84ba 7245 1fbc 4935 9fbd
00000270: 33dc 7e3d f7c2 8cbd 730a adbd af3f b9bc
00000280: d574 bdbd 685a f93b 9e87 97bd 1a72 5b3c
00000290: f078 35bd 4de7 9f3d 13d6 9a3d 4440 9c3d
000002a0: 077b ee3b da2b 103d 3546 8bbd 228e 4abd
000002b0: 0e5f 233d fa22 973c b6f9 5c3d 4e7a b23d
000002c0: 19f2 973d b616 d93c 41e6 52bd 2d88 03bd
000002d0: 8997 823c 4b47 cf3d b679 52bc d9a3 3ebc
000002e0: 7fde 533d c565 a13d 0999 c33b 66df 55bc
000002f0: 9c43 b1bd 2b8d 903c 9a4e a43c 330b a0bd
00000300: 7731 8bbd 5052 c3bd e651 ac3d 7b4c c13d
00000310: a9ca 233d 07db c53d 9780 933c 30b0 023d
00000320: c776 773d b9af 10bd f55b 1fbd d3b5 423d
00000330: 41cc d2bc 936a 563d 740f 73bd 28cd bfbd
00000340: f310 ec3a 8bda a63c 88a7 9f3d 7ffd c13d
00000350: 94d8 31bd 8808 8b3d f763 41bd 4379 08ba
00000360: 6c0a 89bd d6df ed3c 5bc1 df3d b9ec 14be
00000370: 66b9 453d c677 e4bd 22f6 7fbd a66c 00bd
00000380: e08c 86bc 6ae2 77bd a048 203d e3ec 04be
00000390: bcf1 1a3d 4d47 0abd a66e a5bd 2414 a53d
000003a0: 61de 4e3a 17d0 69bd 108b 94bd e01a 9abd
000003b0: 2cf3 1ebd 721c b03c 9124 053c 5f42 e63d
000003c0: 9fff 313a 8de1 66bd 46dc b13d 2831 9e3c
000003d0: 3ae2 f0bb 8e36 753d 9634 f53d 5ce0 8cbd
000003e0: 95dd a3bd 5534 9bbd d2e6 a9bd f8c7 fdbc
000003f0: 1e8f 2a3d 2499 9ebd 778f f9bd 6544 abbd

mean_net.2.bias f4 [64]
0.044409122 0.17221466 -0.03740023 0.0041497275 0.0664616 -0.098483644 -0.09203715 -0.07070656
-0.019783579 0.045761414 0.13737999 -0.10062791 0.104171656 -0.08722071 0.047264803 -0.08633577
-0.10092635 -0.0822411 0.1518402 -0.070941545 0.040498048 0.09579668 -0.0793233 0.07007416
0.08590401 -0.14633109 -0.07812299 0.11979734 -0.043051936 0.061636563 -0.04418081 -0.10504263
-0.085402094 0.028435992 -0.1652144 -0.01923599 -0.016540006 -0.039556812 -0.035677623 -0.083987854
0.103614256 0.123678125 0.09389076 -0.12029883 -0.2932426 -0.06685101 0.057097595 -0.005186717
-0.017484732 0.0061716437 0.062398504 0.04002452 0.11811048 -0.033077687 0.010561875 -0.0057585607
-0.08288602 -0.028160827 -0.14069214 0.13374604 0.1262724 0.019812996 -0.04517833 -0.04606562
00000000: 57e6 353d 0a59 303e fc30 19bd 70fa 873b
00000010: 051d 883d cbb1 c9bd f97d bcbd 9ace 90bd
00000020: 2c11 a2bc 5270 3b3d 57ad 0c3e 0116 cebd
00000030: f357 d53d c6a0 b2bd bd98 413d cfd0 b0bd
00000040: 79b2 cebd 066e a8bd ff7b 1b3e cd49 91bd
00000050: 48e1 253d 0d31 c43d 4174 a2bd 0b83 8f3d
00000060: 71ee af3d d1d7 15be f2fe 9fbd 4f58 f53d
00000070: 3a57 30bd 9f76 7c3d f0f6 34bd 9720 d7bd
00000080: 4be7 aebd 99f2 e83c f72d 29be cb94 9dbc
00000090: e87e 87bc 5306 22bd b322 12bd d301 acbd
000000a0: b633 d43d f54a fd3d cc49 c03d 3c5f f6bd
000000b0: e523 96be 2fe9 88bd 2bdf 693d 56f5 a9bb
000000c0: 243c 8fbc 803b ca3b 9395 7f3d c0f0 233d
000000d0: e8e3 f13d 787c 07bd b70b 2d3c 4fb2 bcbb
000000e0: 25c0 a9bd 89b1 e6bc 9a11 10be b9f4 083e
000000f0: 8d4d 013e dd4e a23c ea0c 39bd 4eaf 3cbd

mean_net.4.weight f4 [8, 64]
-0.0020621107 0.017128251 -0.009523876 0.008282041 0.008134433 0.004939175 0.0020379154 -0.0034787536
-0.0014692113 0.0072382307 0.010715319 -0.00063544774 -0.004367226 -0.010760017 -0.00092252647 0.009395009
0.0068494505 0.0071323453 0.009219698 -0.0005522417 0.0042407154 0.0093012005 0.005562992 0.0027275027
-0.013831965 -0.015425429 0.011319063 -0.0012953698 -0.0030274352 -0.0044670664 -0.0034040543 -0.02233303
0.019071791 -0.00021280703 -0.027311126 -0.00072963943 -0.008689445 -0.0051857643 -0.011585825 -0.006183287
-0.009677648 0.0017392326 0.0024337228 0.0016445863 -0.07699975 0.0023917716 -0.0032206045 0.0050008814
-0.010584817 -0.008450739 -0.012137359 0.0025266088 0.01840108 -0.0075716195 -0.009834333 0.0008450811
0.011369332 -0.0060781906 -0.0017838192 -0.0026431088 0.006242288 0.0030772816 0.008974691 0.008919766
-0.009976982 -0.0048175 0.0028953622 0.0012737219 0.0022813568 -0.0033015762 -0.0069378265 0.0035630593
-0.005126272 -0.003986285 0.0034766796 -0.0014420613 0.009776536 -0.0072510396 0.005537425 0.008120096
0.004492451 0.00641236 -0.014072223 -0.0059085763 -0.008740112 0.006131549 -0.0018465292 -7.565087e-05
-0.0072755544 -0.0036977725 -0.00067243027 0.010968462 -0.008870592 -0.004383607 -0.009322422 0.012428326
-0.006214478 -0.0066579506 0.0111526735 0.00804965 0.0032478468 0.0073655536 -0.0043115467 -0.005467072
-0.005007082 0.019982396 -0.0010652671 0.005680159 0.06694874 -0.001344293 -0.0055790823 0.015192594
-0.0060263546 -0.0036918235 0.010244538 -0.007513176 -0.029964488 0.0026452073 -0.0031558338 0.0031498882
0.012477859 0.0018734579 0.0045156535 0.008580792 -0.006917735 -0.00087928056 0.004228758 0.0018747426
-0.0030729594 0.01197351 0.001872124 0.0021774236 0.010564878 -0.019557118 -0.004368853 0.01451495
0.017627968 -0.016016243 0.015923014 0.009648178 -0.012684116 -0.009468327 -0.014705537 0.001918654
0.0053010476 -0.022791624 0.013479351 0.00052286446 0.0017762507 0.003193777 -0.0016608529 -0.008940268
0.0016214615 -0.00014042985 0.006426974 0.01456598 -0.012710013 0.0014971958 0.011156815 -0.005199361
0.0043860413 -0.010119526 0.013375605 0.012243246 0.0037133333 0.0004141194 -0.0027467893 -0.0042587714
0.0012443541 0.0061924183 0.0068826033 -0.010666103 -0.026224125 0.004657217 -0.0013524465 -0.0072401618
-0.016665736 0.01718553 -0.015390217 0.0041888882 0.03039236 -0.0016917554 -0.0029411013 -0.008485391
-0.009729034 0.0032895512 0.004949615 0.008433039 0.0017356531 -0.010000074 -0.0005454635 0.002054676
0.00037038242 0.015903838 0.004850125 0.0015154113 -0.0049161958 -0.01290256 -0.008847302 -0.00097425294
0.0014843295 -0.009812871 -0.0051642256 -0.0034431594 -0.0027383377 0.0005946319 0.0019822866 0.00074484287
0.0056692353 -0.0083740745 0.0019888862 -0.003410682 -0.0070023094 0.0043800897 -0.0018445473 -0.002795652
-0.0025790064 0.015515833 0.004434256 0.0077723064 -0.0006643764 0.0025256656 -0.0008277722 -0.0012314795
0.00239602 0.012408294 0.0022269164 0.001658889 0.0026970706 -0.0010959002 0.003823707 -0.0051923
-0.0017534813 0.009541378 0.0006561937 -0.002142425 -0.0357425 0.0026538817 0.0040216413 0.00015885232
-0.0017174295 0.013943648 -0.011885504 -0.006509184 0.007780857 0.00078664615 0.0038689792 -0.00095838297
-0.0028949198 0.0018474621 0.007992196 0.0009580387 0.007981568 -0.016638199 0.00827747 -0.0015635225
00000000: 7a24 07bb 8c50 8c3c 080a 1cbc 66b1 073c
00000010: 4946 053c ced8 a13b 8c8e 053b cdfb 63bb
00000020: 8d92 c0ba ae2e ed3b 4e8f 2f3c 2d94 26ba
00000030: f21a 8fbb c84a 30bc b4d5 71ba 86ed 193c
00000040: 5b71 e03b 73b6 e93b 370e 173c 50c4 10ba
00000050: b3f5 8a3b 1064 183c c249 b63b e7bf 323b
00000060: 779f 62bc f0ba 7cbc 9773 393c 66c9 a9ba
00000070: ef67 46bb 7860 92bb 8e16 5fbb c2f3 b6bc
00000080: 723c 9c3c f424 5fb9 95bb dfbc 4645 3fba
00000090: 2d5e 0ebc 58ed a9bb 79d2 3dbc 2c9d cabb
000000a0: ff8e 1ebc f6f6 e33a 187f 1f3b 298f d73a
000000b0: 0cb2 9dbd 45bf 1c3b c710 53bb 6fde a33b
000000c0: f16b 2dbc f874 0abc c6db 46bc 7695 253b
000000d0: ddbd 963c 591b f8bb 2f20 21bc 6f88 5d3a
000000e0: 6f46 3a3c 8f2b c7bb 0acf e9ba 0238 2dbb
000000f0: 1b8c cc3b 38ac 493b 950a 133c 3624 123c
00000100: 7f76 23bc 1edc 9dbb 1ec0 3d3b 04f3 a63a
00000110: d182 153b 425f 58bb b556 e3bb 3782 693b
00000120: 49fa a7bb 629f 82bb 01d9 633b 8c03 bdba
00000130: c42d 203c 219a edbb 4a73 b53b 270a 053c
00000140: 6935 933b c61e d23b 2e8f 66bc bb9c c1bb
00000150: b032 0fbc 29eb c83b 3d07 f2ba c0a6 9eb8
00000160: c667 eebb 5456 72bb 0846 30ba 10b5 333c
00000170: f655 11bc 5ca4 8fbb 12bd 18bc 2da0 4b3c
00000180: d2a2 cbbb f02a dabb b4b9 363c aee2 033c
00000190: d4d9 543b be5a f13b e047 8dbb 2025 b3bb
000001a0: 7312 a4bb 1fb2 a33c 6fa0 8bba a120 ba3b
000001b0: 6c1c 893d fd32 b0ba bcd0 b6bb 5cea 783c
000001c0: ba78 c5bb 85f2 71bb b5d8 273c 1731 f6bb
000001d0: 1678 f5bc 375b 2d3b 1bd2 4ebb 5b6e 4e3b
000001e0: ef6f 4c3c d18e f53a 0cf8 933b 7396 0c3c
000001f0: 2bae e2bb 857f 66ba 6591 8a3b ecb9 f53a
00000200: b463 49bb 8a2c 443c 0f62 f53a 1bb3 0e3b
00000210: 4f18 2d3c 4036 a0bc 9828 8fbb 1dd0 6d3c
00000220: 8768 903c 7f34 83bc fb70 823c 6413 1e3c
00000230: 0ad1 4fbc 0b21 1bbc 7eef 70bc 587b fb3a
00000240: 69b4 ad3b 80b5 babc 7fd8 5c3c d710 093a
00000250: 15d1 e83a b04e 513b fab0 d9ba 347a 12bc
00000260: 3887 d43a 5a40 13b9 5e99 d23b 26a6 6e3c
00000270: a93d 50bc 8e3d c43a 13cb 363c 675f aabb
00000280: c8b8 8f3b 5ecc 25bc 5b25 5b3c e597 483c
00000290: 655b 733b 2a1e d939 7a03 34bb 2a8d 8bbb
000002a0: 9819 a33a c5e9 ca3b 7687 e13b e1c0 2ebc
000002b0: fad3 d6bc 919b 983b 9344 b1ba e13e edbb
000002c0: 9586 88bc abc8 8c3c 4027 7cbc f142 893b
000002d0: 66f9 f83c e4bd ddba 7ebf 40bb 4f06 0bbc
000002e0: 8766 1fbc 8395 573b 6130 a23b bb2a 0a3c
000002f0: db7e e33a 5ad7 23bc 70fd 0eba bea7 063b
00000300: e32f c239 c448 823c cced 9e3b c4a0 c63a
00000310: 0a18 a1bb 4265 53bc 46f4 10bc 0265 7fba
00000320: d58d c23a 2ac6 20bc aa38 a9bb a1a6 61bb
00000330: af75 33bb 12e1 1b3a 40e9 013b 8f41 433a
00000340: fec4 b93b 6a33 09bc f957 023b c085 5fbb
00000350: a173 e5bb db86 8f3b bdc4 f1ba 4237 37bb
00000360: 8c04 29bb 1f36 7e3c 3c4d 913b d5ae fe3b
00000370: 8c29 2eba a385 253b dafe 58ba 9869 a1ba
00000380: 8c06 1d3b 284c 4b3c 75f1 113b 146f d93a
00000390: 56c1 303b 4fa4 8fba 2997 7a3b 2b24 aabb
000003a0: 12d5 e5ba 7153 1c3c 6a04 2c3a ed67 0cbb
000003b0: ba66 12bd bfec 2d3b f9c7 833b 9891 2639
000003c0: 5f1b e1ba e673 643c 6bbb 42bc fe4a d5bb
000003d0: 8ff6 fe3b ee36 4e3a b38e 7d3b fe3b 7bba
000003e0: b2b8 3dbb 8b26 f23a b3f1 023c e424 7b3a
000003f0: 1fc5 023c d54c 88bc 3a9e 073c 1cef ccba

mean_net.4.bias f4 [8]
0.017059749 -0.05901656 -0.0651254 -0.15631613 -0.059952267 0.09225642 0.0067688227 0.09088673
00000000: e3c0 8b3c 59bb 71bd 7760 85bd 5611 20be
00000010: 8290 75bd eff0 bc3d 00cd dd3b d222 ba3d
